…
lu_16x3x3ConvRelu_2x2MaxPooling_Dropout_128Dense_ReluActiv_Dropout_8pEarlyStop_100Batch/model_256_7.h5', 'data/256/Vortex_8x3x3ConvRelu_16x3x3ConvRelu_2x2MaxPooling_Dropout_128Dense_ReluActiv_Dropout_8pEarlyStop_100Batch/model_256_8.h5', 'data/256/Vortex_8x3x3ConvRelu_16x3x3ConvRelu_2x2MaxPooling_Dropout_128Dense_ReluActiv_Dropout_8pEarlyStop_100Batch/model_256_9.h5'] 

_________________________________________________________________
Layer (type)                 Output Shape              Param #   
=================================================================
conv2d (Conv2D)              (None, 14, 14, 8)         80        
_________________________________________________________________
conv2d_1 (Conv2D)            (None, 12, 12, 16)        1168      
_________________________________________________________________
max_pooling2d (MaxPooling2D) (None, 6, 6, 16)          0         
_________________________________________________________________
dropout (Dropout)            (None, 6, 6, 16)          0         
_________________________________________________________________
flatten (Flatten)            (None, 576)               0         
_________________________________________________________________
dense (Dense)                (None, 128)               73856     
_________________________________________________________________
dropout_1 (Dropout)          (None, 128)               0         
_________________________________________________________________
dense_1 (Dense)              (None, 2)                 258       
=================================================================
Total params: 75,362
Trainable params: 75,362
Non-trainable params: 0
_________________________________________________________________

Evaluating model 0 . . .
Average accuracy = 0.9548 +- 0.00054
Average loss = 0.1083 +- 0.00135
Missed temperatures = 1

Evaluating model 1 . . .
Average accuracy = 0.9553 +- 0.0006
Average loss = 0.1082 +- 0.00139
…
lu_16x3x3ConvRelu_2x2MaxPooling_Dropout_128Dense_ReluActiv_Dropout_8pEarlyStop_100Batch/model_576_7.h5', 'data/576/Vortex_8x3x3ConvRelu_16x3x3ConvRelu_2x2MaxPooling_Dropout_128Dense_ReluActiv_Dropout_8pEarlyStop_100Batch/model_576_8.h5', 'data/576/Vortex_8x3x3ConvRelu_16x3x3ConvRelu_2x2MaxPooling_Dropout_128Dense_ReluActiv_Dropout_8pEarlyStop_100Batch/model_576_9.h5'] 

_________________________________________________________________
Layer (type)                 Output Shape              Param #   
=================================================================
conv2d (Conv2D)              (None, 22, 22, 8)         80        
_________________________________________________________________
conv2d_1 (Conv2D)            (None, 20, 20, 16)        1168      
_________________________________________________________________
max_pooling2d (MaxPooling2D) (None, 10, 10, 16)        0         
_________________________________________________________________
dropout (Dropout)            (None, 10, 10, 16)        0         
_________________________________________________________________
flatten (Flatten)            (None, 1600)              0         
_________________________________________________________________
dense (Dense)                (None, 128)               204928    
_________________________________________________________________
dropout_1 (Dropout)          (None, 128)               0         
_________________________________________________________________
dense_1 (Dense)              (None, 2)                 258       
=================================================================
Total params: 206,434
Trainable params: 206,434
Non-trainable params: 0
_________________________________________________________________

Evaluating model 0 . . .
Average accuracy = 0.9677 +- 0.00049
Average loss = 0.0752 +- 0.00089

Evaluating model 1 . . .
Average accuracy = 0.9681 +- 0.00044
Average loss = 0.0747 +- 0.00088
…
x3x3ConvRelu_2x2MaxPooling_Dropout_128Dense_ReluActiv_Dropout_8pEarlyStop_100Batch/model_1024_7.h5', 'data/1024/Vortex_8x3x3ConvRelu_16x3x3ConvRelu_2x2MaxPooling_Dropout_128Dense_ReluActiv_Dropout_8pEarlyStop_100Batch/model_1024_8.h5', 'data/1024/Vortex_8x3x3ConvRelu_16x3x3ConvRelu_2x2MaxPooling_Dropout_128Dense_ReluActiv_Dropout_8pEarlyStop_100Batch/model_1024_9.h5'] 

_________________________________________________________________
Layer (type)                 Output Shape              Param #   
=================================================================
conv2d (Conv2D)              (None, 30, 30, 8)         80        
_________________________________________________________________
conv2d_1 (Conv2D)            (None, 28, 28, 16)        1168      
_________________________________________________________________
max_pooling2d (MaxPooling2D) (None, 14, 14, 16)        0         
_________________________________________________________________
dropout (Dropout)            (None, 14, 14, 16)        0         
_________________________________________________________________
flatten (Flatten)            (None, 3136)              0         
_________________________________________________________________
dense (Dense)                (None, 128)               401536    
_________________________________________________________________
dropout_1 (Dropout)          (None, 128)               0         
_________________________________________________________________
dense_1 (Dense)              (None, 2)                 258       
=================================================================
Total params: 403,042
Trainable params: 403,042
Non-trainable params: 0
_________________________________________________________________

Evaluating model 0 . . .
Average accuracy = 0.974 +- 0.00059
Average loss = 0.0596 +- 0.00089

Evaluating model 1 . . .
Average accuracy = 0.9736 +- 0.00058
Average loss = 0.0618 +- 0.00102
…
x3x3ConvRelu_2x2MaxPooling_Dropout_128Dense_ReluActiv_Dropout_8pEarlyStop_100Batch/model_1600_7.h5', 'data/1600/Vortex_8x3x3ConvRelu_16x3x3ConvRelu_2x2MaxPooling_Dropout_128Dense_ReluActiv_Dropout_8pEarlyStop_100Batch/model_1600_8.h5', 'data/1600/Vortex_8x3x3ConvRelu_16x3x3ConvRelu_2x2MaxPooling_Dropout_128Dense_ReluActiv_Dropout_8pEarlyStop_100Batch/model_1600_9.h5'] 

_________________________________________________________________
Layer (type)                 Output Shape              Param #   
=================================================================
conv2d (Conv2D)              (None, 38, 38, 8)         80        
_________________________________________________________________
conv2d_1 (Conv2D)            (None, 36, 36, 16)        1168      
_________________________________________________________________
max_pooling2d (MaxPooling2D) (None, 18, 18, 16)        0         
_________________________________________________________________
dropout (Dropout)            (None, 18, 18, 16)        0         
_________________________________________________________________
flatten (Flatten)            (None, 5184)              0         
_________________________________________________________________
dense (Dense)                (None, 128)               663680    
_________________________________________________________________
dropout_1 (Dropout)          (None, 128)               0         
_________________________________________________________________
dense_1 (Dense)              (None, 2)                 258       
=================================================================
Total params: 665,186
Trainable params: 665,186
Non-trainable params: 0
_________________________________________________________________

Evaluating model 0 . . .
Average accuracy = 0.9784 +- 0.00033
Average loss = 0.0503 +- 0.00066

Evaluating model 1 . . .
Average accuracy = 0.9781 +- 0.00052
Average loss = 0.0528 +- 0.00084
…
x3x3ConvRelu_2x2MaxPooling_Dropout_128Dense_ReluActiv_Dropout_8pEarlyStop_100Batch/model_2304_7.h5', 'data/2304/Vortex_8x3x3ConvRelu_16x3x3ConvRelu_2x2MaxPooling_Dropout_128Dense_ReluActiv_Dropout_8pEarlyStop_100Batch/model_2304_8.h5', 'data/2304/Vortex_8x3x3ConvRelu_16x3x3ConvRelu_2x2MaxPooling_Dropout_128Dense_ReluActiv_Dropout_8pEarlyStop_100Batch/model_2304_9.h5'] 

_________________________________________________________________
Layer (type)                 Output Shape              Param #   
=================================================================
conv2d (Conv2D)              (None, 46, 46, 8)         80        
_________________________________________________________________
conv2d_1 (Conv2D)            (None, 44, 44, 16)        1168      
_________________________________________________________________
max_pooling2d (MaxPooling2D) (None, 22, 22, 16)        0         
_________________________________________________________________
dropout (Dropout)            (None, 22, 22, 16)        0         
_________________________________________________________________
flatten (Flatten)            (None, 7744)              0         
_________________________________________________________________
dense (Dense)                (None, 128)               991360    
_________________________________________________________________
dropout_1 (Dropout)          (None, 128)               0         
_________________________________________________________________
dense_1 (Dense)              (None, 2)                 258       
=================================================================
Total params: 992,866
Trainable params: 992,866
Non-trainable params: 0
_________________________________________________________________

Evaluating model 0 . . .
Average accuracy = 0.9802 +- 0.00029
Average loss = 0.0456 +- 0.00069

Evaluating model 1 . . .
Average accuracy = 0.9814 +- 0.0004
Average loss = 0.0428 +- 0.00058
…
