…
1_L2Reg0.01_8pEarlyStop_100Batch/model_900_6.h5', 'data/900/5Layer_10Neurons_ReluActiv_RandomInit_Adam0.0001_L2Reg0.01_8pEarlyStop_100Batch/model_900_7.h5', 'data/900/5Layer_10Neurons_ReluActiv_RandomInit_Adam0.0001_L2Reg0.01_8pEarlyStop_100Batch/model_900_8.h5', 'data/900/5Layer_10Neurons_ReluActiv_RandomInit_Adam0.0001_L2Reg0.01_8pEarlyStop_100Batch/model_900_9.h5'] 

_________________________________________________________________
Layer (type)                 Output Shape              Param #   
=================================================================
dense (Dense)                (None, 10)                9010      
_________________________________________________________________
dense_1 (Dense)              (None, 10)                110       
_________________________________________________________________
dense_2 (Dense)              (None, 10)                110       
_________________________________________________________________
dense_3 (Dense)              (None, 10)                110       
_________________________________________________________________
dense_4 (Dense)              (None, 10)                110       
_________________________________________________________________
dense_5 (Dense)              (None, 2)                 22        
=================================================================
Total params: 9,472
Trainable params: 9,472
Non-trainable params: 0
_________________________________________________________________

Evaluating model 0 . . .
Average accuracy = 0.9888 +- 0.00017
Average loss = 0.3402 +- 0.00042

Evaluating model 1 . . .
Average accuracy = 0.9884 +- 0.00015
Average loss = 0.1222 +- 0.00038
…
0.01_8pEarlyStop_100Batch/model_2500_6.h5', 'data/2500/5Layer_10Neurons_ReluActiv_RandomInit_Adam0.0001_L2Reg0.01_8pEarlyStop_100Batch/model_2500_7.h5', 'data/2500/5Layer_10Neurons_ReluActiv_RandomInit_Adam0.0001_L2Reg0.01_8pEarlyStop_100Batch/model_2500_8.h5', 'data/2500/5Layer_10Neurons_ReluActiv_RandomInit_Adam0.0001_L2Reg0.01_8pEarlyStop_100Batch/model_2500_9.h5'] 

_________________________________________________________________
Layer (type)                 Output Shape              Param #   
=================================================================
dense (Dense)                (None, 10)                25010     
_________________________________________________________________
dense_1 (Dense)              (None, 10)                110       
_________________________________________________________________
dense_2 (Dense)              (None, 10)                110       
_________________________________________________________________
dense_3 (Dense)              (None, 10)                110       
_________________________________________________________________
dense_4 (Dense)              (None, 10)                110       
_________________________________________________________________
dense_5 (Dense)              (None, 2)                 22        
=================================================================
Total params: 25,472
Trainable params: 25,472
Non-trainable params: 0
_________________________________________________________________

Evaluating model 0 . . .
Average accuracy = 0.9946 +- 0.0002
Average loss = 0.2536 +- 0.0006

Evaluating model 1 . . .
Average accuracy = 0.9956 +- 0.00017
Average loss = 0.5439 +- 0.00079
…
0.01_8pEarlyStop_100Batch/model_6400_6.h5', 'data/6400/5Layer_10Neurons_ReluActiv_RandomInit_Adam0.0001_L2Reg0.01_8pEarlyStop_100Batch/model_6400_7.h5', 'data/6400/5Layer_10Neurons_ReluActiv_RandomInit_Adam0.0001_L2Reg0.01_8pEarlyStop_100Batch/model_6400_8.h5', 'data/6400/5Layer_10Neurons_ReluActiv_RandomInit_Adam0.0001_L2Reg0.01_8pEarlyStop_100Batch/model_6400_9.h5'] 

_________________________________________________________________
Layer (type)                 Output Shape              Param #   
=================================================================
dense (Dense)                (None, 10)                64010     
_________________________________________________________________
dense_1 (Dense)              (None, 10)                110       
_________________________________________________________________
dense_2 (Dense)              (None, 10)                110       
_________________________________________________________________
dense_3 (Dense)              (None, 10)                110       
_________________________________________________________________
dense_4 (Dense)              (None, 10)                110       
_________________________________________________________________
dense_5 (Dense)              (None, 2)                 22        
=================================================================
Total params: 64,472
Trainable params: 64,472
Non-trainable params: 0
_________________________________________________________________

Evaluating model 0 . . .
Average accuracy = 0.9989 +- 7e-05
Average loss = 0.4947 +- 0.00013

Evaluating model 1 . . .
Average accuracy = 0.7431 +- 0.00119
Average loss = 84.336 +- 0.01822
…
